{"class_name": "Model", "config": {"name": "model_1", "layers": [{"name": "sequence", "class_name": "InputLayer", "config": {"batch_input_shape": [null, 13000, 4], "dtype": "float32", "sparse": false, "name": "sequence"}, "inbound_nodes": []}, {"name": "upsampling", "class_name": "Conv1D", "config": {"name": "upsampling", "trainable": true, "filters": 32, "kernel_size": [1], "strides": [1], "padding": "same", "data_format": "channels_last", "dilation_rate": [1], "activation": "relu", "use_bias": true, "kernel_initializer": {"class_name": "VarianceScaling", "config": {"scale": 1.0, "mode": "fan_avg", "distribution": "uniform", "seed": null}}, "bias_initializer": {"class_name": "Zeros", "config": {}}, "kernel_regularizer": null, "bias_regularizer": null, "activity_regularizer": null, "kernel_constraint": null, "bias_constraint": null}, "inbound_nodes": [[["sequence", 0, 0, {}]]]}, {"name": "batch_normalization_1", "class_name": "BatchNormalization", "config": {"name": "batch_normalization_1", "trainable": true, "axis": -1, "momentum": 0.99, "epsilon": 0.001, "center": true, "scale": true, "beta_initializer": {"class_name": "Zeros", "config": {}}, "gamma_initializer": {"class_name": "Ones", "config": {}}, "moving_mean_initializer": {"class_name": "Zeros", "config": {}}, "moving_variance_initializer": {"class_name": "Ones", "config": {}}, "beta_regularizer": null, "gamma_regularizer": null, "beta_constraint": null, "gamma_constraint": null}, "inbound_nodes": [[["upsampling", 0, 0, {}]]]}, {"name": "activation_1", "class_name": "Activation", "config": {"name": "activation_1", "trainable": true, "activation": "relu"}, "inbound_nodes": [[["batch_normalization_1", 0, 0, {}]]]}, {"name": "conv_0_a", "class_name": "Conv1D", "config": {"name": "conv_0_a", "trainable": true, "filters": 32, "kernel_size": [11], "strides": [1], "padding": "valid", "data_format": "channels_last", "dilation_rate": [1], "activation": "linear", "use_bias": true, "kernel_initializer": {"class_name": "VarianceScaling", "config": {"scale": 1.0, "mode": "fan_avg", "distribution": "uniform", "seed": null}}, "bias_initializer": {"class_name": "Zeros", "config": {}}, "kernel_regularizer": null, "bias_regularizer": null, "activity_regularizer": null, "kernel_constraint": null, "bias_constraint": null}, "inbound_nodes": [[["activation_1", 0, 0, {}]]]}, {"name": "batch_normalization_2", "class_name": "BatchNormalization", "config": {"name": "batch_normalization_2", "trainable": true, "axis": -1, "momentum": 0.99, "epsilon": 0.001, "center": true, "scale": true, "beta_initializer": {"class_name": "Zeros", "config": {}}, "gamma_initializer": {"class_name": "Ones", "config": {}}, "moving_mean_initializer": {"class_name": "Zeros", "config": {}}, "moving_variance_initializer": {"class_name": "Ones", "config": {}}, "beta_regularizer": null, "gamma_regularizer": null, "beta_constraint": null, "gamma_constraint": null}, "inbound_nodes": [[["conv_0_a", 0, 0, {}]]]}, {"name": "activation_2", "class_name": "Activation", "config": {"name": "activation_2", "trainable": true, "activation": "relu"}, "inbound_nodes": [[["batch_normalization_2", 0, 0, {}]]]}, {"name": "conv_0_b", "class_name": "Conv1D", "config": {"name": "conv_0_b", "trainable": true, "filters": 32, "kernel_size": [11], "strides": [1], "padding": "valid", "data_format": "channels_last", "dilation_rate": [1], "activation": "linear", "use_bias": true, "kernel_initializer": {"class_name": "VarianceScaling", "config": {"scale": 1.0, "mode": "fan_avg", "distribution": "uniform", "seed": null}}, "bias_initializer": {"class_name": "Zeros", "config": {}}, "kernel_regularizer": null, "bias_regularizer": null, "activity_regularizer": null, "kernel_constraint": null, "bias_constraint": null}, "inbound_nodes": [[["activation_2", 0, 0, {}]]]}, {"name": "cropping1d_1", "class_name": "Cropping1D", "config": {"name": "cropping1d_1", "trainable": true, "cropping": [10, 10]}, "inbound_nodes": [[["upsampling", 0, 0, {}]]]}, {"name": "add_1", "class_name": "Add", "config": {"name": "add_1", "trainable": true}, "inbound_nodes": [[["conv_0_b", 0, 0, {}], ["cropping1d_1", 0, 0, {}]]]}, {"name": "batch_normalization_3", "class_name": "BatchNormalization", "config": {"name": "batch_normalization_3", "trainable": true, "axis": -1, "momentum": 0.99, "epsilon": 0.001, "center": true, "scale": true, "beta_initializer": {"class_name": "Zeros", "config": {}}, "gamma_initializer": {"class_name": "Ones", "config": {}}, "moving_mean_initializer": {"class_name": "Zeros", "config": {}}, "moving_variance_initializer": {"class_name": "Ones", "config": {}}, "beta_regularizer": null, "gamma_regularizer": null, "beta_constraint": null, "gamma_constraint": null}, "inbound_nodes": [[["add_1", 0, 0, {}]]]}, {"name": "activation_3", "class_name": "Activation", "config": {"name": "activation_3", "trainable": true, "activation": "relu"}, "inbound_nodes": [[["batch_normalization_3", 0, 0, {}]]]}, {"name": "conv_1_a", "class_name": "Conv1D", "config": {"name": "conv_1_a", "trainable": true, "filters": 32, "kernel_size": [11], "strides": [1], "padding": "valid", "data_format": "channels_last", "dilation_rate": [1], "activation": "linear", "use_bias": true, "kernel_initializer": {"class_name": "VarianceScaling", "config": {"scale": 1.0, "mode": "fan_avg", "distribution": "uniform", "seed": null}}, "bias_initializer": {"class_name": "Zeros", "config": {}}, "kernel_regularizer": null, "bias_regularizer": null, "activity_regularizer": null, "kernel_constraint": null, "bias_constraint": null}, "inbound_nodes": [[["activation_3", 0, 0, {}]]]}, {"name": "batch_normalization_4", "class_name": "BatchNormalization", "config": {"name": "batch_normalization_4", "trainable": true, "axis": -1, "momentum": 0.99, "epsilon": 0.001, "center": true, "scale": true, "beta_initializer": {"class_name": "Zeros", "config": {}}, "gamma_initializer": {"class_name": "Ones", "config": {}}, "moving_mean_initializer": {"class_name": "Zeros", "config": {}}, "moving_variance_initializer": {"class_name": "Ones", "config": {}}, "beta_regularizer": null, "gamma_regularizer": null, "beta_constraint": null, "gamma_constraint": null}, "inbound_nodes": [[["conv_1_a", 0, 0, {}]]]}, {"name": "activation_4", "class_name": "Activation", "config": {"name": "activation_4", "trainable": true, "activation": "relu"}, "inbound_nodes": [[["batch_normalization_4", 0, 0, {}]]]}, {"name": "conv_1_b", "class_name": "Conv1D", "config": {"name": "conv_1_b", "trainable": true, "filters": 32, "kernel_size": [11], "strides": [1], "padding": "valid", "data_format": "channels_last", "dilation_rate": [1], "activation": "linear", "use_bias": true, "kernel_initializer": {"class_name": "VarianceScaling", "config": {"scale": 1.0, "mode": "fan_avg", "distribution": "uniform", "seed": null}}, "bias_initializer": {"class_name": "Zeros", "config": {}}, "kernel_regularizer": null, "bias_regularizer": null, "activity_regularizer": null, "kernel_constraint": null, "bias_constraint": null}, "inbound_nodes": [[["activation_4", 0, 0, {}]]]}, {"name": "cropping1d_2", "class_name": "Cropping1D", "config": {"name": "cropping1d_2", "trainable": true, "cropping": [10, 10]}, "inbound_nodes": [[["add_1", 0, 0, {}]]]}, {"name": "add_2", "class_name": "Add", "config": {"name": "add_2", "trainable": true}, "inbound_nodes": [[["conv_1_b", 0, 0, {}], ["cropping1d_2", 0, 0, {}]]]}, {"name": "batch_normalization_5", "class_name": "BatchNormalization", "config": {"name": "batch_normalization_5", "trainable": true, "axis": -1, "momentum": 0.99, "epsilon": 0.001, "center": true, "scale": true, "beta_initializer": {"class_name": "Zeros", "config": {}}, "gamma_initializer": {"class_name": "Ones", "config": {}}, "moving_mean_initializer": {"class_name": "Zeros", "config": {}}, "moving_variance_initializer": {"class_name": "Ones", "config": {}}, "beta_regularizer": null, "gamma_regularizer": null, "beta_constraint": null, "gamma_constraint": null}, "inbound_nodes": [[["add_2", 0, 0, {}]]]}, {"name": "activation_5", "class_name": "Activation", "config": {"name": "activation_5", "trainable": true, "activation": "relu"}, "inbound_nodes": [[["batch_normalization_5", 0, 0, {}]]]}, {"name": "conv_2_a", "class_name": "Conv1D", "config": {"name": "conv_2_a", "trainable": true, "filters": 32, "kernel_size": [11], "strides": [1], "padding": "valid", "data_format": "channels_last", "dilation_rate": [1], "activation": "linear", "use_bias": true, "kernel_initializer": {"class_name": "VarianceScaling", "config": {"scale": 1.0, "mode": "fan_avg", "distribution": "uniform", "seed": null}}, "bias_initializer": {"class_name": "Zeros", "config": {}}, "kernel_regularizer": null, "bias_regularizer": null, "activity_regularizer": null, "kernel_constraint": null, "bias_constraint": null}, "inbound_nodes": [[["activation_5", 0, 0, {}]]]}, {"name": "batch_normalization_6", "class_name": "BatchNormalization", "config": {"name": "batch_normalization_6", "trainable": true, "axis": -1, "momentum": 0.99, "epsilon": 0.001, "center": true, "scale": true, "beta_initializer": {"class_name": "Zeros", "config": {}}, "gamma_initializer": {"class_name": "Ones", "config": {}}, "moving_mean_initializer": {"class_name": "Zeros", "config": {}}, "moving_variance_initializer": {"class_name": "Ones", "config": {}}, "beta_regularizer": null, "gamma_regularizer": null, "beta_constraint": null, "gamma_constraint": null}, "inbound_nodes": [[["conv_2_a", 0, 0, {}]]]}, {"name": "activation_6", "class_name": "Activation", "config": {"name": "activation_6", "trainable": true, "activation": "relu"}, "inbound_nodes": [[["batch_normalization_6", 0, 0, {}]]]}, {"name": "conv_2_b", "class_name": "Conv1D", "config": {"name": "conv_2_b", "trainable": true, "filters": 32, "kernel_size": [11], "strides": [1], "padding": "valid", "data_format": "channels_last", "dilation_rate": [1], "activation": "linear", "use_bias": true, "kernel_initializer": {"class_name": "VarianceScaling", "config": {"scale": 1.0, "mode": "fan_avg", "distribution": "uniform", "seed": null}}, "bias_initializer": {"class_name": "Zeros", "config": {}}, "kernel_regularizer": null, "bias_regularizer": null, "activity_regularizer": null, "kernel_constraint": null, "bias_constraint": null}, "inbound_nodes": [[["activation_6", 0, 0, {}]]]}, {"name": "cropping1d_3", "class_name": "Cropping1D", "config": {"name": "cropping1d_3", "trainable": true, "cropping": [10, 10]}, "inbound_nodes": [[["add_2", 0, 0, {}]]]}, {"name": "add_3", "class_name": "Add", "config": {"name": "add_3", "trainable": true}, "inbound_nodes": [[["conv_2_b", 0, 0, {}], ["cropping1d_3", 0, 0, {}]]]}, {"name": "batch_normalization_7", "class_name": "BatchNormalization", "config": {"name": "batch_normalization_7", "trainable": true, "axis": -1, "momentum": 0.99, "epsilon": 0.001, "center": true, "scale": true, "beta_initializer": {"class_name": "Zeros", "config": {}}, "gamma_initializer": {"class_name": "Ones", "config": {}}, "moving_mean_initializer": {"class_name": "Zeros", "config": {}}, "moving_variance_initializer": {"class_name": "Ones", "config": {}}, "beta_regularizer": null, "gamma_regularizer": null, "beta_constraint": null, "gamma_constraint": null}, "inbound_nodes": [[["add_3", 0, 0, {}]]]}, {"name": "activation_7", "class_name": "Activation", "config": {"name": "activation_7", "trainable": true, "activation": "relu"}, "inbound_nodes": [[["batch_normalization_7", 0, 0, {}]]]}, {"name": "conv_3_a", "class_name": "Conv1D", "config": {"name": "conv_3_a", "trainable": true, "filters": 32, "kernel_size": [11], "strides": [1], "padding": "valid", "data_format": "channels_last", "dilation_rate": [1], "activation": "linear", "use_bias": true, "kernel_initializer": {"class_name": "VarianceScaling", "config": {"scale": 1.0, "mode": "fan_avg", "distribution": "uniform", "seed": null}}, "bias_initializer": {"class_name": "Zeros", "config": {}}, "kernel_regularizer": null, "bias_regularizer": null, "activity_regularizer": null, "kernel_constraint": null, "bias_constraint": null}, "inbound_nodes": [[["activation_7", 0, 0, {}]]]}, {"name": "batch_normalization_8", "class_name": "BatchNormalization", "config": {"name": "batch_normalization_8", "trainable": true, "axis": -1, "momentum": 0.99, "epsilon": 0.001, "center": true, "scale": true, "beta_initializer": {"class_name": "Zeros", "config": {}}, "gamma_initializer": {"class_name": "Ones", "config": {}}, "moving_mean_initializer": {"class_name": "Zeros", "config": {}}, "moving_variance_initializer": {"class_name": "Ones", "config": {}}, "beta_regularizer": null, "gamma_regularizer": null, "beta_constraint": null, "gamma_constraint": null}, "inbound_nodes": [[["conv_3_a", 0, 0, {}]]]}, {"name": "activation_8", "class_name": "Activation", "config": {"name": "activation_8", "trainable": true, "activation": "relu"}, "inbound_nodes": [[["batch_normalization_8", 0, 0, {}]]]}, {"name": "conv_3_b", "class_name": "Conv1D", "config": {"name": "conv_3_b", "trainable": true, "filters": 32, "kernel_size": [11], "strides": [1], "padding": "valid", "data_format": "channels_last", "dilation_rate": [1], "activation": "linear", "use_bias": true, "kernel_initializer": {"class_name": "VarianceScaling", "config": {"scale": 1.0, "mode": "fan_avg", "distribution": "uniform", "seed": null}}, "bias_initializer": {"class_name": "Zeros", "config": {}}, "kernel_regularizer": null, "bias_regularizer": null, "activity_regularizer": null, "kernel_constraint": null, "bias_constraint": null}, "inbound_nodes": [[["activation_8", 0, 0, {}]]]}, {"name": "cropping1d_4", "class_name": "Cropping1D", "config": {"name": "cropping1d_4", "trainable": true, "cropping": [10, 10]}, "inbound_nodes": [[["add_3", 0, 0, {}]]]}, {"name": "add_4", "class_name": "Add", "config": {"name": "add_4", "trainable": true}, "inbound_nodes": [[["conv_3_b", 0, 0, {}], ["cropping1d_4", 0, 0, {}]]]}, {"name": "batch_normalization_9", "class_name": "BatchNormalization", "config": {"name": "batch_normalization_9", "trainable": true, "axis": -1, "momentum": 0.99, "epsilon": 0.001, "center": true, "scale": true, "beta_initializer": {"class_name": "Zeros", "config": {}}, "gamma_initializer": {"class_name": "Ones", "config": {}}, "moving_mean_initializer": {"class_name": "Zeros", "config": {}}, "moving_variance_initializer": {"class_name": "Ones", "config": {}}, "beta_regularizer": null, "gamma_regularizer": null, "beta_constraint": null, "gamma_constraint": null}, "inbound_nodes": [[["add_4", 0, 0, {}]]]}, {"name": "activation_9", "class_name": "Activation", "config": {"name": "activation_9", "trainable": true, "activation": "relu"}, "inbound_nodes": [[["batch_normalization_9", 0, 0, {}]]]}, {"name": "conv_4_a", "class_name": "Conv1D", "config": {"name": "conv_4_a", "trainable": true, "filters": 32, "kernel_size": [11], "strides": [1], "padding": "valid", "data_format": "channels_last", "dilation_rate": [4], "activation": "linear", "use_bias": true, "kernel_initializer": {"class_name": "VarianceScaling", "config": {"scale": 1.0, "mode": "fan_avg", "distribution": "uniform", "seed": null}}, "bias_initializer": {"class_name": "Zeros", "config": {}}, "kernel_regularizer": null, "bias_regularizer": null, "activity_regularizer": null, "kernel_constraint": null, "bias_constraint": null}, "inbound_nodes": [[["activation_9", 0, 0, {}]]]}, {"name": "batch_normalization_10", "class_name": "BatchNormalization", "config": {"name": "batch_normalization_10", "trainable": true, "axis": -1, "momentum": 0.99, "epsilon": 0.001, "center": true, "scale": true, "beta_initializer": {"class_name": "Zeros", "config": {}}, "gamma_initializer": {"class_name": "Ones", "config": {}}, "moving_mean_initializer": {"class_name": "Zeros", "config": {}}, "moving_variance_initializer": {"class_name": "Ones", "config": {}}, "beta_regularizer": null, "gamma_regularizer": null, "beta_constraint": null, "gamma_constraint": null}, "inbound_nodes": [[["conv_4_a", 0, 0, {}]]]}, {"name": "activation_10", "class_name": "Activation", "config": {"name": "activation_10", "trainable": true, "activation": "relu"}, "inbound_nodes": [[["batch_normalization_10", 0, 0, {}]]]}, {"name": "conv_4_b", "class_name": "Conv1D", "config": {"name": "conv_4_b", "trainable": true, "filters": 32, "kernel_size": [11], "strides": [1], "padding": "valid", "data_format": "channels_last", "dilation_rate": [4], "activation": "linear", "use_bias": true, "kernel_initializer": {"class_name": "VarianceScaling", "config": {"scale": 1.0, "mode": "fan_avg", "distribution": "uniform", "seed": null}}, "bias_initializer": {"class_name": "Zeros", "config": {}}, "kernel_regularizer": null, "bias_regularizer": null, "activity_regularizer": null, "kernel_constraint": null, "bias_constraint": null}, "inbound_nodes": [[["activation_10", 0, 0, {}]]]}, {"name": "cropping1d_5", "class_name": "Cropping1D", "config": {"name": "cropping1d_5", "trainable": true, "cropping": [40, 40]}, "inbound_nodes": [[["add_4", 0, 0, {}]]]}, {"name": "add_5", "class_name": "Add", "config": {"name": "add_5", "trainable": true}, "inbound_nodes": [[["conv_4_b", 0, 0, {}], ["cropping1d_5", 0, 0, {}]]]}, {"name": "batch_normalization_11", "class_name": "BatchNormalization", "config": {"name": "batch_normalization_11", "trainable": true, "axis": -1, "momentum": 0.99, "epsilon": 0.001, "center": true, "scale": true, "beta_initializer": {"class_name": "Zeros", "config": {}}, "gamma_initializer": {"class_name": "Ones", "config": {}}, "moving_mean_initializer": {"class_name": "Zeros", "config": {}}, "moving_variance_initializer": {"class_name": "Ones", "config": {}}, "beta_regularizer": null, "gamma_regularizer": null, "beta_constraint": null, "gamma_constraint": null}, "inbound_nodes": [[["add_5", 0, 0, {}]]]}, {"name": "activation_11", "class_name": "Activation", "config": {"name": "activation_11", "trainable": true, "activation": "relu"}, "inbound_nodes": [[["batch_normalization_11", 0, 0, {}]]]}, {"name": "conv_5_a", "class_name": "Conv1D", "config": {"name": "conv_5_a", "trainable": true, "filters": 32, "kernel_size": [11], "strides": [1], "padding": "valid", "data_format": "channels_last", "dilation_rate": [4], "activation": "linear", "use_bias": true, "kernel_initializer": {"class_name": "VarianceScaling", "config": {"scale": 1.0, "mode": "fan_avg", "distribution": "uniform", "seed": null}}, "bias_initializer": {"class_name": "Zeros", "config": {}}, "kernel_regularizer": null, "bias_regularizer": null, "activity_regularizer": null, "kernel_constraint": null, "bias_constraint": null}, "inbound_nodes": [[["activation_11", 0, 0, {}]]]}, {"name": "batch_normalization_12", "class_name": "BatchNormalization", "config": {"name": "batch_normalization_12", "trainable": true, "axis": -1, "momentum": 0.99, "epsilon": 0.001, "center": true, "scale": true, "beta_initializer": {"class_name": "Zeros", "config": {}}, "gamma_initializer": {"class_name": "Ones", "config": {}}, "moving_mean_initializer": {"class_name": "Zeros", "config": {}}, "moving_variance_initializer": {"class_name": "Ones", "config": {}}, "beta_regularizer": null, "gamma_regularizer": null, "beta_constraint": null, "gamma_constraint": null}, "inbound_nodes": [[["conv_5_a", 0, 0, {}]]]}, {"name": "activation_12", "class_name": "Activation", "config": {"name": "activation_12", "trainable": true, "activation": "relu"}, "inbound_nodes": [[["batch_normalization_12", 0, 0, {}]]]}, {"name": "conv_5_b", "class_name": "Conv1D", "config": {"name": "conv_5_b", "trainable": true, "filters": 32, "kernel_size": [11], "strides": [1], "padding": "valid", "data_format": "channels_last", "dilation_rate": [4], "activation": "linear", "use_bias": true, "kernel_initializer": {"class_name": "VarianceScaling", "config": {"scale": 1.0, "mode": "fan_avg", "distribution": "uniform", "seed": null}}, "bias_initializer": {"class_name": "Zeros", "config": {}}, "kernel_regularizer": null, "bias_regularizer": null, "activity_regularizer": null, "kernel_constraint": null, "bias_constraint": null}, "inbound_nodes": [[["activation_12", 0, 0, {}]]]}, {"name": "cropping1d_6", "class_name": "Cropping1D", "config": {"name": "cropping1d_6", "trainable": true, "cropping": [40, 40]}, "inbound_nodes": [[["add_5", 0, 0, {}]]]}, {"name": "add_6", "class_name": "Add", "config": {"name": "add_6", "trainable": true}, "inbound_nodes": [[["conv_5_b", 0, 0, {}], ["cropping1d_6", 0, 0, {}]]]}, {"name": "batch_normalization_13", "class_name": "BatchNormalization", "config": {"name": "batch_normalization_13", "trainable": true, "axis": -1, "momentum": 0.99, "epsilon": 0.001, "center": true, "scale": true, "beta_initializer": {"class_name": "Zeros", "config": {}}, "gamma_initializer": {"class_name": "Ones", "config": {}}, "moving_mean_initializer": {"class_name": "Zeros", "config": {}}, "moving_variance_initializer": {"class_name": "Ones", "config": {}}, "beta_regularizer": null, "gamma_regularizer": null, "beta_constraint": null, "gamma_constraint": null}, "inbound_nodes": [[["add_6", 0, 0, {}]]]}, {"name": "activation_13", "class_name": "Activation", "config": {"name": "activation_13", "trainable": true, "activation": "relu"}, "inbound_nodes": [[["batch_normalization_13", 0, 0, {}]]]}, {"name": "conv_6_a", "class_name": "Conv1D", "config": {"name": "conv_6_a", "trainable": true, "filters": 32, "kernel_size": [11], "strides": [1], "padding": "valid", "data_format": "channels_last", "dilation_rate": [4], "activation": "linear", "use_bias": true, "kernel_initializer": {"class_name": "VarianceScaling", "config": {"scale": 1.0, "mode": "fan_avg", "distribution": "uniform", "seed": null}}, "bias_initializer": {"class_name": "Zeros", "config": {}}, "kernel_regularizer": null, "bias_regularizer": null, "activity_regularizer": null, "kernel_constraint": null, "bias_constraint": null}, "inbound_nodes": [[["activation_13", 0, 0, {}]]]}, {"name": "batch_normalization_14", "class_name": "BatchNormalization", "config": {"name": "batch_normalization_14", "trainable": true, "axis": -1, "momentum": 0.99, "epsilon": 0.001, "center": true, "scale": true, "beta_initializer": {"class_name": "Zeros", "config": {}}, "gamma_initializer": {"class_name": "Ones", "config": {}}, "moving_mean_initializer": {"class_name": "Zeros", "config": {}}, "moving_variance_initializer": {"class_name": "Ones", "config": {}}, "beta_regularizer": null, "gamma_regularizer": null, "beta_constraint": null, "gamma_constraint": null}, "inbound_nodes": [[["conv_6_a", 0, 0, {}]]]}, {"name": "activation_14", "class_name": "Activation", "config": {"name": "activation_14", "trainable": true, "activation": "relu"}, "inbound_nodes": [[["batch_normalization_14", 0, 0, {}]]]}, {"name": "conv_6_b", "class_name": "Conv1D", "config": {"name": "conv_6_b", "trainable": true, "filters": 32, "kernel_size": [11], "strides": [1], "padding": "valid", "data_format": "channels_last", "dilation_rate": [4], "activation": "linear", "use_bias": true, "kernel_initializer": {"class_name": "VarianceScaling", "config": {"scale": 1.0, "mode": "fan_avg", "distribution": "uniform", "seed": null}}, "bias_initializer": {"class_name": "Zeros", "config": {}}, "kernel_regularizer": null, "bias_regularizer": null, "activity_regularizer": null, "kernel_constraint": null, "bias_constraint": null}, "inbound_nodes": [[["activation_14", 0, 0, {}]]]}, {"name": "cropping1d_7", "class_name": "Cropping1D", "config": {"name": "cropping1d_7", "trainable": true, "cropping": [40, 40]}, "inbound_nodes": [[["add_6", 0, 0, {}]]]}, {"name": "add_7", "class_name": "Add", "config": {"name": "add_7", "trainable": true}, "inbound_nodes": [[["conv_6_b", 0, 0, {}], ["cropping1d_7", 0, 0, {}]]]}, {"name": "batch_normalization_15", "class_name": "BatchNormalization", "config": {"name": "batch_normalization_15", "trainable": true, "axis": -1, "momentum": 0.99, "epsilon": 0.001, "center": true, "scale": true, "beta_initializer": {"class_name": "Zeros", "config": {}}, "gamma_initializer": {"class_name": "Ones", "config": {}}, "moving_mean_initializer": {"class_name": "Zeros", "config": {}}, "moving_variance_initializer": {"class_name": "Ones", "config": {}}, "beta_regularizer": null, "gamma_regularizer": null, "beta_constraint": null, "gamma_constraint": null}, "inbound_nodes": [[["add_7", 0, 0, {}]]]}, {"name": "activation_15", "class_name": "Activation", "config": {"name": "activation_15", "trainable": true, "activation": "relu"}, "inbound_nodes": [[["batch_normalization_15", 0, 0, {}]]]}, {"name": "conv_7_a", "class_name": "Conv1D", "config": {"name": "conv_7_a", "trainable": true, "filters": 32, "kernel_size": [11], "strides": [1], "padding": "valid", "data_format": "channels_last", "dilation_rate": [4], "activation": "linear", "use_bias": true, "kernel_initializer": {"class_name": "VarianceScaling", "config": {"scale": 1.0, "mode": "fan_avg", "distribution": "uniform", "seed": null}}, "bias_initializer": {"class_name": "Zeros", "config": {}}, "kernel_regularizer": null, "bias_regularizer": null, "activity_regularizer": null, "kernel_constraint": null, "bias_constraint": null}, "inbound_nodes": [[["activation_15", 0, 0, {}]]]}, {"name": "batch_normalization_16", "class_name": "BatchNormalization", "config": {"name": "batch_normalization_16", "trainable": true, "axis": -1, "momentum": 0.99, "epsilon": 0.001, "center": true, "scale": true, "beta_initializer": {"class_name": "Zeros", "config": {}}, "gamma_initializer": {"class_name": "Ones", "config": {}}, "moving_mean_initializer": {"class_name": "Zeros", "config": {}}, "moving_variance_initializer": {"class_name": "Ones", "config": {}}, "beta_regularizer": null, "gamma_regularizer": null, "beta_constraint": null, "gamma_constraint": null}, "inbound_nodes": [[["conv_7_a", 0, 0, {}]]]}, {"name": "activation_16", "class_name": "Activation", "config": {"name": "activation_16", "trainable": true, "activation": "relu"}, "inbound_nodes": [[["batch_normalization_16", 0, 0, {}]]]}, {"name": "conv_7_b", "class_name": "Conv1D", "config": {"name": "conv_7_b", "trainable": true, "filters": 32, "kernel_size": [11], "strides": [1], "padding": "valid", "data_format": "channels_last", "dilation_rate": [4], "activation": "linear", "use_bias": true, "kernel_initializer": {"class_name": "VarianceScaling", "config": {"scale": 1.0, "mode": "fan_avg", "distribution": "uniform", "seed": null}}, "bias_initializer": {"class_name": "Zeros", "config": {}}, "kernel_regularizer": null, "bias_regularizer": null, "activity_regularizer": null, "kernel_constraint": null, "bias_constraint": null}, "inbound_nodes": [[["activation_16", 0, 0, {}]]]}, {"name": "cropping1d_8", "class_name": "Cropping1D", "config": {"name": "cropping1d_8", "trainable": true, "cropping": [40, 40]}, "inbound_nodes": [[["add_7", 0, 0, {}]]]}, {"name": "add_8", "class_name": "Add", "config": {"name": "add_8", "trainable": true}, "inbound_nodes": [[["conv_7_b", 0, 0, {}], ["cropping1d_8", 0, 0, {}]]]}, {"name": "batch_normalization_17", "class_name": "BatchNormalization", "config": {"name": "batch_normalization_17", "trainable": true, "axis": -1, "momentum": 0.99, "epsilon": 0.001, "center": true, "scale": true, "beta_initializer": {"class_name": "Zeros", "config": {}}, "gamma_initializer": {"class_name": "Ones", "config": {}}, "moving_mean_initializer": {"class_name": "Zeros", "config": {}}, "moving_variance_initializer": {"class_name": "Ones", "config": {}}, "beta_regularizer": null, "gamma_regularizer": null, "beta_constraint": null, "gamma_constraint": null}, "inbound_nodes": [[["add_8", 0, 0, {}]]]}, {"name": "activation_17", "class_name": "Activation", "config": {"name": "activation_17", "trainable": true, "activation": "relu"}, "inbound_nodes": [[["batch_normalization_17", 0, 0, {}]]]}, {"name": "conv_8_a", "class_name": "Conv1D", "config": {"name": "conv_8_a", "trainable": true, "filters": 32, "kernel_size": [21], "strides": [1], "padding": "valid", "data_format": "channels_last", "dilation_rate": [10], "activation": "linear", "use_bias": true, "kernel_initializer": {"class_name": "VarianceScaling", "config": {"scale": 1.0, "mode": "fan_avg", "distribution": "uniform", "seed": null}}, "bias_initializer": {"class_name": "Zeros", "config": {}}, "kernel_regularizer": null, "bias_regularizer": null, "activity_regularizer": null, "kernel_constraint": null, "bias_constraint": null}, "inbound_nodes": [[["activation_17", 0, 0, {}]]]}, {"name": "batch_normalization_18", "class_name": "BatchNormalization", "config": {"name": "batch_normalization_18", "trainable": true, "axis": -1, "momentum": 0.99, "epsilon": 0.001, "center": true, "scale": true, "beta_initializer": {"class_name": "Zeros", "config": {}}, "gamma_initializer": {"class_name": "Ones", "config": {}}, "moving_mean_initializer": {"class_name": "Zeros", "config": {}}, "moving_variance_initializer": {"class_name": "Ones", "config": {}}, "beta_regularizer": null, "gamma_regularizer": null, "beta_constraint": null, "gamma_constraint": null}, "inbound_nodes": [[["conv_8_a", 0, 0, {}]]]}, {"name": "activation_18", "class_name": "Activation", "config": {"name": "activation_18", "trainable": true, "activation": "relu"}, "inbound_nodes": [[["batch_normalization_18", 0, 0, {}]]]}, {"name": "conv_8_b", "class_name": "Conv1D", "config": {"name": "conv_8_b", "trainable": true, "filters": 32, "kernel_size": [21], "strides": [1], "padding": "valid", "data_format": "channels_last", "dilation_rate": [10], "activation": "linear", "use_bias": true, "kernel_initializer": {"class_name": "VarianceScaling", "config": {"scale": 1.0, "mode": "fan_avg", "distribution": "uniform", "seed": null}}, "bias_initializer": {"class_name": "Zeros", "config": {}}, "kernel_regularizer": null, "bias_regularizer": null, "activity_regularizer": null, "kernel_constraint": null, "bias_constraint": null}, "inbound_nodes": [[["activation_18", 0, 0, {}]]]}, {"name": "cropping1d_9", "class_name": "Cropping1D", "config": {"name": "cropping1d_9", "trainable": true, "cropping": [200, 200]}, "inbound_nodes": [[["add_8", 0, 0, {}]]]}, {"name": "add_9", "class_name": "Add", "config": {"name": "add_9", "trainable": true}, "inbound_nodes": [[["conv_8_b", 0, 0, {}], ["cropping1d_9", 0, 0, {}]]]}, {"name": "batch_normalization_19", "class_name": "BatchNormalization", "config": {"name": "batch_normalization_19", "trainable": true, "axis": -1, "momentum": 0.99, "epsilon": 0.001, "center": true, "scale": true, "beta_initializer": {"class_name": "Zeros", "config": {}}, "gamma_initializer": {"class_name": "Ones", "config": {}}, "moving_mean_initializer": {"class_name": "Zeros", "config": {}}, "moving_variance_initializer": {"class_name": "Ones", "config": {}}, "beta_regularizer": null, "gamma_regularizer": null, "beta_constraint": null, "gamma_constraint": null}, "inbound_nodes": [[["add_9", 0, 0, {}]]]}, {"name": "activation_19", "class_name": "Activation", "config": {"name": "activation_19", "trainable": true, "activation": "relu"}, "inbound_nodes": [[["batch_normalization_19", 0, 0, {}]]]}, {"name": "conv_9_a", "class_name": "Conv1D", "config": {"name": "conv_9_a", "trainable": true, "filters": 32, "kernel_size": [21], "strides": [1], "padding": "valid", "data_format": "channels_last", "dilation_rate": [10], "activation": "linear", "use_bias": true, "kernel_initializer": {"class_name": "VarianceScaling", "config": {"scale": 1.0, "mode": "fan_avg", "distribution": "uniform", "seed": null}}, "bias_initializer": {"class_name": "Zeros", "config": {}}, "kernel_regularizer": null, "bias_regularizer": null, "activity_regularizer": null, "kernel_constraint": null, "bias_constraint": null}, "inbound_nodes": [[["activation_19", 0, 0, {}]]]}, {"name": "batch_normalization_20", "class_name": "BatchNormalization", "config": {"name": "batch_normalization_20", "trainable": true, "axis": -1, "momentum": 0.99, "epsilon": 0.001, "center": true, "scale": true, "beta_initializer": {"class_name": "Zeros", "config": {}}, "gamma_initializer": {"class_name": "Ones", "config": {}}, "moving_mean_initializer": {"class_name": "Zeros", "config": {}}, "moving_variance_initializer": {"class_name": "Ones", "config": {}}, "beta_regularizer": null, "gamma_regularizer": null, "beta_constraint": null, "gamma_constraint": null}, "inbound_nodes": [[["conv_9_a", 0, 0, {}]]]}, {"name": "activation_20", "class_name": "Activation", "config": {"name": "activation_20", "trainable": true, "activation": "relu"}, "inbound_nodes": [[["batch_normalization_20", 0, 0, {}]]]}, {"name": "conv_9_b", "class_name": "Conv1D", "config": {"name": "conv_9_b", "trainable": true, "filters": 32, "kernel_size": [21], "strides": [1], "padding": "valid", "data_format": "channels_last", "dilation_rate": [10], "activation": "linear", "use_bias": true, "kernel_initializer": {"class_name": "VarianceScaling", "config": {"scale": 1.0, "mode": "fan_avg", "distribution": "uniform", "seed": null}}, "bias_initializer": {"class_name": "Zeros", "config": {}}, "kernel_regularizer": null, "bias_regularizer": null, "activity_regularizer": null, "kernel_constraint": null, "bias_constraint": null}, "inbound_nodes": [[["activation_20", 0, 0, {}]]]}, {"name": "cropping1d_10", "class_name": "Cropping1D", "config": {"name": "cropping1d_10", "trainable": true, "cropping": [200, 200]}, "inbound_nodes": [[["add_9", 0, 0, {}]]]}, {"name": "add_10", "class_name": "Add", "config": {"name": "add_10", "trainable": true}, "inbound_nodes": [[["conv_9_b", 0, 0, {}], ["cropping1d_10", 0, 0, {}]]]}, {"name": "batch_normalization_21", "class_name": "BatchNormalization", "config": {"name": "batch_normalization_21", "trainable": true, "axis": -1, "momentum": 0.99, "epsilon": 0.001, "center": true, "scale": true, "beta_initializer": {"class_name": "Zeros", "config": {}}, "gamma_initializer": {"class_name": "Ones", "config": {}}, "moving_mean_initializer": {"class_name": "Zeros", "config": {}}, "moving_variance_initializer": {"class_name": "Ones", "config": {}}, "beta_regularizer": null, "gamma_regularizer": null, "beta_constraint": null, "gamma_constraint": null}, "inbound_nodes": [[["add_10", 0, 0, {}]]]}, {"name": "activation_21", "class_name": "Activation", "config": {"name": "activation_21", "trainable": true, "activation": "relu"}, "inbound_nodes": [[["batch_normalization_21", 0, 0, {}]]]}, {"name": "conv_10_a", "class_name": "Conv1D", "config": {"name": "conv_10_a", "trainable": true, "filters": 32, "kernel_size": [21], "strides": [1], "padding": "valid", "data_format": "channels_last", "dilation_rate": [10], "activation": "linear", "use_bias": true, "kernel_initializer": {"class_name": "VarianceScaling", "config": {"scale": 1.0, "mode": "fan_avg", "distribution": "uniform", "seed": null}}, "bias_initializer": {"class_name": "Zeros", "config": {}}, "kernel_regularizer": null, "bias_regularizer": null, "activity_regularizer": null, "kernel_constraint": null, "bias_constraint": null}, "inbound_nodes": [[["activation_21", 0, 0, {}]]]}, {"name": "batch_normalization_22", "class_name": "BatchNormalization", "config": {"name": "batch_normalization_22", "trainable": true, "axis": -1, "momentum": 0.99, "epsilon": 0.001, "center": true, "scale": true, "beta_initializer": {"class_name": "Zeros", "config": {}}, "gamma_initializer": {"class_name": "Ones", "config": {}}, "moving_mean_initializer": {"class_name": "Zeros", "config": {}}, "moving_variance_initializer": {"class_name": "Ones", "config": {}}, "beta_regularizer": null, "gamma_regularizer": null, "beta_constraint": null, "gamma_constraint": null}, "inbound_nodes": [[["conv_10_a", 0, 0, {}]]]}, {"name": "activation_22", "class_name": "Activation", "config": {"name": "activation_22", "trainable": true, "activation": "relu"}, "inbound_nodes": [[["batch_normalization_22", 0, 0, {}]]]}, {"name": "conv_10_b", "class_name": "Conv1D", "config": {"name": "conv_10_b", "trainable": true, "filters": 32, "kernel_size": [21], "strides": [1], "padding": "valid", "data_format": "channels_last", "dilation_rate": [10], "activation": "linear", "use_bias": true, "kernel_initializer": {"class_name": "VarianceScaling", "config": {"scale": 1.0, "mode": "fan_avg", "distribution": "uniform", "seed": null}}, "bias_initializer": {"class_name": "Zeros", "config": {}}, "kernel_regularizer": null, "bias_regularizer": null, "activity_regularizer": null, "kernel_constraint": null, "bias_constraint": null}, "inbound_nodes": [[["activation_22", 0, 0, {}]]]}, {"name": "cropping1d_11", "class_name": "Cropping1D", "config": {"name": "cropping1d_11", "trainable": true, "cropping": [200, 200]}, "inbound_nodes": [[["add_10", 0, 0, {}]]]}, {"name": "add_11", "class_name": "Add", "config": {"name": "add_11", "trainable": true}, "inbound_nodes": [[["conv_10_b", 0, 0, {}], ["cropping1d_11", 0, 0, {}]]]}, {"name": "batch_normalization_23", "class_name": "BatchNormalization", "config": {"name": "batch_normalization_23", "trainable": true, "axis": -1, "momentum": 0.99, "epsilon": 0.001, "center": true, "scale": true, "beta_initializer": {"class_name": "Zeros", "config": {}}, "gamma_initializer": {"class_name": "Ones", "config": {}}, "moving_mean_initializer": {"class_name": "Zeros", "config": {}}, "moving_variance_initializer": {"class_name": "Ones", "config": {}}, "beta_regularizer": null, "gamma_regularizer": null, "beta_constraint": null, "gamma_constraint": null}, "inbound_nodes": [[["add_11", 0, 0, {}]]]}, {"name": "activation_23", "class_name": "Activation", "config": {"name": "activation_23", "trainable": true, "activation": "relu"}, "inbound_nodes": [[["batch_normalization_23", 0, 0, {}]]]}, {"name": "conv_11_a", "class_name": "Conv1D", "config": {"name": "conv_11_a", "trainable": true, "filters": 32, "kernel_size": [21], "strides": [1], "padding": "valid", "data_format": "channels_last", "dilation_rate": [10], "activation": "linear", "use_bias": true, "kernel_initializer": {"class_name": "VarianceScaling", "config": {"scale": 1.0, "mode": "fan_avg", "distribution": "uniform", "seed": null}}, "bias_initializer": {"class_name": "Zeros", "config": {}}, "kernel_regularizer": null, "bias_regularizer": null, "activity_regularizer": null, "kernel_constraint": null, "bias_constraint": null}, "inbound_nodes": [[["activation_23", 0, 0, {}]]]}, {"name": "batch_normalization_24", "class_name": "BatchNormalization", "config": {"name": "batch_normalization_24", "trainable": true, "axis": -1, "momentum": 0.99, "epsilon": 0.001, "center": true, "scale": true, "beta_initializer": {"class_name": "Zeros", "config": {}}, "gamma_initializer": {"class_name": "Ones", "config": {}}, "moving_mean_initializer": {"class_name": "Zeros", "config": {}}, "moving_variance_initializer": {"class_name": "Ones", "config": {}}, "beta_regularizer": null, "gamma_regularizer": null, "beta_constraint": null, "gamma_constraint": null}, "inbound_nodes": [[["conv_11_a", 0, 0, {}]]]}, {"name": "activation_24", "class_name": "Activation", "config": {"name": "activation_24", "trainable": true, "activation": "relu"}, "inbound_nodes": [[["batch_normalization_24", 0, 0, {}]]]}, {"name": "conv_11_b", "class_name": "Conv1D", "config": {"name": "conv_11_b", "trainable": true, "filters": 32, "kernel_size": [21], "strides": [1], "padding": "valid", "data_format": "channels_last", "dilation_rate": [10], "activation": "linear", "use_bias": true, "kernel_initializer": {"class_name": "VarianceScaling", "config": {"scale": 1.0, "mode": "fan_avg", "distribution": "uniform", "seed": null}}, "bias_initializer": {"class_name": "Zeros", "config": {}}, "kernel_regularizer": null, "bias_regularizer": null, "activity_regularizer": null, "kernel_constraint": null, "bias_constraint": null}, "inbound_nodes": [[["activation_24", 0, 0, {}]]]}, {"name": "cropping1d_12", "class_name": "Cropping1D", "config": {"name": "cropping1d_12", "trainable": true, "cropping": [200, 200]}, "inbound_nodes": [[["add_11", 0, 0, {}]]]}, {"name": "add_12", "class_name": "Add", "config": {"name": "add_12", "trainable": true}, "inbound_nodes": [[["conv_11_b", 0, 0, {}], ["cropping1d_12", 0, 0, {}]]]}, {"name": "batch_normalization_25", "class_name": "BatchNormalization", "config": {"name": "batch_normalization_25", "trainable": true, "axis": -1, "momentum": 0.99, "epsilon": 0.001, "center": true, "scale": true, "beta_initializer": {"class_name": "Zeros", "config": {}}, "gamma_initializer": {"class_name": "Ones", "config": {}}, "moving_mean_initializer": {"class_name": "Zeros", "config": {}}, "moving_variance_initializer": {"class_name": "Ones", "config": {}}, "beta_regularizer": null, "gamma_regularizer": null, "beta_constraint": null, "gamma_constraint": null}, "inbound_nodes": [[["add_12", 0, 0, {}]]]}, {"name": "activation_25", "class_name": "Activation", "config": {"name": "activation_25", "trainable": true, "activation": "relu"}, "inbound_nodes": [[["batch_normalization_25", 0, 0, {}]]]}, {"name": "conv_12_a", "class_name": "Conv1D", "config": {"name": "conv_12_a", "trainable": true, "filters": 32, "kernel_size": [41], "strides": [1], "padding": "valid", "data_format": "channels_last", "dilation_rate": [25], "activation": "linear", "use_bias": true, "kernel_initializer": {"class_name": "VarianceScaling", "config": {"scale": 1.0, "mode": "fan_avg", "distribution": "uniform", "seed": null}}, "bias_initializer": {"class_name": "Zeros", "config": {}}, "kernel_regularizer": null, "bias_regularizer": null, "activity_regularizer": null, "kernel_constraint": null, "bias_constraint": null}, "inbound_nodes": [[["activation_25", 0, 0, {}]]]}, {"name": "batch_normalization_26", "class_name": "BatchNormalization", "config": {"name": "batch_normalization_26", "trainable": true, "axis": -1, "momentum": 0.99, "epsilon": 0.001, "center": true, "scale": true, "beta_initializer": {"class_name": "Zeros", "config": {}}, "gamma_initializer": {"class_name": "Ones", "config": {}}, "moving_mean_initializer": {"class_name": "Zeros", "config": {}}, "moving_variance_initializer": {"class_name": "Ones", "config": {}}, "beta_regularizer": null, "gamma_regularizer": null, "beta_constraint": null, "gamma_constraint": null}, "inbound_nodes": [[["conv_12_a", 0, 0, {}]]]}, {"name": "activation_26", "class_name": "Activation", "config": {"name": "activation_26", "trainable": true, "activation": "relu"}, "inbound_nodes": [[["batch_normalization_26", 0, 0, {}]]]}, {"name": "conv_12_b", "class_name": "Conv1D", "config": {"name": "conv_12_b", "trainable": true, "filters": 32, "kernel_size": [41], "strides": [1], "padding": "valid", "data_format": "channels_last", "dilation_rate": [25], "activation": "linear", "use_bias": true, "kernel_initializer": {"class_name": "VarianceScaling", "config": {"scale": 1.0, "mode": "fan_avg", "distribution": "uniform", "seed": null}}, "bias_initializer": {"class_name": "Zeros", "config": {}}, "kernel_regularizer": null, "bias_regularizer": null, "activity_regularizer": null, "kernel_constraint": null, "bias_constraint": null}, "inbound_nodes": [[["activation_26", 0, 0, {}]]]}, {"name": "cropping1d_13", "class_name": "Cropping1D", "config": {"name": "cropping1d_13", "trainable": true, "cropping": [1000, 1000]}, "inbound_nodes": [[["add_12", 0, 0, {}]]]}, {"name": "add_13", "class_name": "Add", "config": {"name": "add_13", "trainable": true}, "inbound_nodes": [[["conv_12_b", 0, 0, {}], ["cropping1d_13", 0, 0, {}]]]}, {"name": "batch_normalization_27", "class_name": "BatchNormalization", "config": {"name": "batch_normalization_27", "trainable": true, "axis": -1, "momentum": 0.99, "epsilon": 0.001, "center": true, "scale": true, "beta_initializer": {"class_name": "Zeros", "config": {}}, "gamma_initializer": {"class_name": "Ones", "config": {}}, "moving_mean_initializer": {"class_name": "Zeros", "config": {}}, "moving_variance_initializer": {"class_name": "Ones", "config": {}}, "beta_regularizer": null, "gamma_regularizer": null, "beta_constraint": null, "gamma_constraint": null}, "inbound_nodes": [[["add_13", 0, 0, {}]]]}, {"name": "activation_27", "class_name": "Activation", "config": {"name": "activation_27", "trainable": true, "activation": "relu"}, "inbound_nodes": [[["batch_normalization_27", 0, 0, {}]]]}, {"name": "conv_13_a", "class_name": "Conv1D", "config": {"name": "conv_13_a", "trainable": true, "filters": 32, "kernel_size": [41], "strides": [1], "padding": "valid", "data_format": "channels_last", "dilation_rate": [25], "activation": "linear", "use_bias": true, "kernel_initializer": {"class_name": "VarianceScaling", "config": {"scale": 1.0, "mode": "fan_avg", "distribution": "uniform", "seed": null}}, "bias_initializer": {"class_name": "Zeros", "config": {}}, "kernel_regularizer": null, "bias_regularizer": null, "activity_regularizer": null, "kernel_constraint": null, "bias_constraint": null}, "inbound_nodes": [[["activation_27", 0, 0, {}]]]}, {"name": "batch_normalization_28", "class_name": "BatchNormalization", "config": {"name": "batch_normalization_28", "trainable": true, "axis": -1, "momentum": 0.99, "epsilon": 0.001, "center": true, "scale": true, "beta_initializer": {"class_name": "Zeros", "config": {}}, "gamma_initializer": {"class_name": "Ones", "config": {}}, "moving_mean_initializer": {"class_name": "Zeros", "config": {}}, "moving_variance_initializer": {"class_name": "Ones", "config": {}}, "beta_regularizer": null, "gamma_regularizer": null, "beta_constraint": null, "gamma_constraint": null}, "inbound_nodes": [[["conv_13_a", 0, 0, {}]]]}, {"name": "activation_28", "class_name": "Activation", "config": {"name": "activation_28", "trainable": true, "activation": "relu"}, "inbound_nodes": [[["batch_normalization_28", 0, 0, {}]]]}, {"name": "conv_13_b", "class_name": "Conv1D", "config": {"name": "conv_13_b", "trainable": true, "filters": 32, "kernel_size": [41], "strides": [1], "padding": "valid", "data_format": "channels_last", "dilation_rate": [25], "activation": "linear", "use_bias": true, "kernel_initializer": {"class_name": "VarianceScaling", "config": {"scale": 1.0, "mode": "fan_avg", "distribution": "uniform", "seed": null}}, "bias_initializer": {"class_name": "Zeros", "config": {}}, "kernel_regularizer": null, "bias_regularizer": null, "activity_regularizer": null, "kernel_constraint": null, "bias_constraint": null}, "inbound_nodes": [[["activation_28", 0, 0, {}]]]}, {"name": "cropping1d_14", "class_name": "Cropping1D", "config": {"name": "cropping1d_14", "trainable": true, "cropping": [1000, 1000]}, "inbound_nodes": [[["add_13", 0, 0, {}]]]}, {"name": "add_14", "class_name": "Add", "config": {"name": "add_14", "trainable": true}, "inbound_nodes": [[["conv_13_b", 0, 0, {}], ["cropping1d_14", 0, 0, {}]]]}, {"name": "batch_normalization_29", "class_name": "BatchNormalization", "config": {"name": "batch_normalization_29", "trainable": true, "axis": -1, "momentum": 0.99, "epsilon": 0.001, "center": true, "scale": true, "beta_initializer": {"class_name": "Zeros", "config": {}}, "gamma_initializer": {"class_name": "Ones", "config": {}}, "moving_mean_initializer": {"class_name": "Zeros", "config": {}}, "moving_variance_initializer": {"class_name": "Ones", "config": {}}, "beta_regularizer": null, "gamma_regularizer": null, "beta_constraint": null, "gamma_constraint": null}, "inbound_nodes": [[["add_14", 0, 0, {}]]]}, {"name": "activation_29", "class_name": "Activation", "config": {"name": "activation_29", "trainable": true, "activation": "relu"}, "inbound_nodes": [[["batch_normalization_29", 0, 0, {}]]]}, {"name": "conv_14_a", "class_name": "Conv1D", "config": {"name": "conv_14_a", "trainable": true, "filters": 32, "kernel_size": [41], "strides": [1], "padding": "valid", "data_format": "channels_last", "dilation_rate": [25], "activation": "linear", "use_bias": true, "kernel_initializer": {"class_name": "VarianceScaling", "config": {"scale": 1.0, "mode": "fan_avg", "distribution": "uniform", "seed": null}}, "bias_initializer": {"class_name": "Zeros", "config": {}}, "kernel_regularizer": null, "bias_regularizer": null, "activity_regularizer": null, "kernel_constraint": null, "bias_constraint": null}, "inbound_nodes": [[["activation_29", 0, 0, {}]]]}, {"name": "batch_normalization_30", "class_name": "BatchNormalization", "config": {"name": "batch_normalization_30", "trainable": true, "axis": -1, "momentum": 0.99, "epsilon": 0.001, "center": true, "scale": true, "beta_initializer": {"class_name": "Zeros", "config": {}}, "gamma_initializer": {"class_name": "Ones", "config": {}}, "moving_mean_initializer": {"class_name": "Zeros", "config": {}}, "moving_variance_initializer": {"class_name": "Ones", "config": {}}, "beta_regularizer": null, "gamma_regularizer": null, "beta_constraint": null, "gamma_constraint": null}, "inbound_nodes": [[["conv_14_a", 0, 0, {}]]]}, {"name": "activation_30", "class_name": "Activation", "config": {"name": "activation_30", "trainable": true, "activation": "relu"}, "inbound_nodes": [[["batch_normalization_30", 0, 0, {}]]]}, {"name": "conv_14_b", "class_name": "Conv1D", "config": {"name": "conv_14_b", "trainable": true, "filters": 32, "kernel_size": [41], "strides": [1], "padding": "valid", "data_format": "channels_last", "dilation_rate": [25], "activation": "linear", "use_bias": true, "kernel_initializer": {"class_name": "VarianceScaling", "config": {"scale": 1.0, "mode": "fan_avg", "distribution": "uniform", "seed": null}}, "bias_initializer": {"class_name": "Zeros", "config": {}}, "kernel_regularizer": null, "bias_regularizer": null, "activity_regularizer": null, "kernel_constraint": null, "bias_constraint": null}, "inbound_nodes": [[["activation_30", 0, 0, {}]]]}, {"name": "cropping1d_15", "class_name": "Cropping1D", "config": {"name": "cropping1d_15", "trainable": true, "cropping": [1000, 1000]}, "inbound_nodes": [[["add_14", 0, 0, {}]]]}, {"name": "add_15", "class_name": "Add", "config": {"name": "add_15", "trainable": true}, "inbound_nodes": [[["conv_14_b", 0, 0, {}], ["cropping1d_15", 0, 0, {}]]]}, {"name": "batch_normalization_31", "class_name": "BatchNormalization", "config": {"name": "batch_normalization_31", "trainable": true, "axis": -1, "momentum": 0.99, "epsilon": 0.001, "center": true, "scale": true, "beta_initializer": {"class_name": "Zeros", "config": {}}, "gamma_initializer": {"class_name": "Ones", "config": {}}, "moving_mean_initializer": {"class_name": "Zeros", "config": {}}, "moving_variance_initializer": {"class_name": "Ones", "config": {}}, "beta_regularizer": null, "gamma_regularizer": null, "beta_constraint": null, "gamma_constraint": null}, "inbound_nodes": [[["add_15", 0, 0, {}]]]}, {"name": "activation_31", "class_name": "Activation", "config": {"name": "activation_31", "trainable": true, "activation": "relu"}, "inbound_nodes": [[["batch_normalization_31", 0, 0, {}]]]}, {"name": "conv_15_a", "class_name": "Conv1D", "config": {"name": "conv_15_a", "trainable": true, "filters": 32, "kernel_size": [41], "strides": [1], "padding": "valid", "data_format": "channels_last", "dilation_rate": [25], "activation": "linear", "use_bias": true, "kernel_initializer": {"class_name": "VarianceScaling", "config": {"scale": 1.0, "mode": "fan_avg", "distribution": "uniform", "seed": null}}, "bias_initializer": {"class_name": "Zeros", "config": {}}, "kernel_regularizer": null, "bias_regularizer": null, "activity_regularizer": null, "kernel_constraint": null, "bias_constraint": null}, "inbound_nodes": [[["activation_31", 0, 0, {}]]]}, {"name": "batch_normalization_32", "class_name": "BatchNormalization", "config": {"name": "batch_normalization_32", "trainable": true, "axis": -1, "momentum": 0.99, "epsilon": 0.001, "center": true, "scale": true, "beta_initializer": {"class_name": "Zeros", "config": {}}, "gamma_initializer": {"class_name": "Ones", "config": {}}, "moving_mean_initializer": {"class_name": "Zeros", "config": {}}, "moving_variance_initializer": {"class_name": "Ones", "config": {}}, "beta_regularizer": null, "gamma_regularizer": null, "beta_constraint": null, "gamma_constraint": null}, "inbound_nodes": [[["conv_15_a", 0, 0, {}]]]}, {"name": "activation_32", "class_name": "Activation", "config": {"name": "activation_32", "trainable": true, "activation": "relu"}, "inbound_nodes": [[["batch_normalization_32", 0, 0, {}]]]}, {"name": "conv_15_b", "class_name": "Conv1D", "config": {"name": "conv_15_b", "trainable": true, "filters": 32, "kernel_size": [41], "strides": [1], "padding": "valid", "data_format": "channels_last", "dilation_rate": [25], "activation": "linear", "use_bias": true, "kernel_initializer": {"class_name": "VarianceScaling", "config": {"scale": 1.0, "mode": "fan_avg", "distribution": "uniform", "seed": null}}, "bias_initializer": {"class_name": "Zeros", "config": {}}, "kernel_regularizer": null, "bias_regularizer": null, "activity_regularizer": null, "kernel_constraint": null, "bias_constraint": null}, "inbound_nodes": [[["activation_32", 0, 0, {}]]]}, {"name": "cropping1d_16", "class_name": "Cropping1D", "config": {"name": "cropping1d_16", "trainable": true, "cropping": [1000, 1000]}, "inbound_nodes": [[["add_15", 0, 0, {}]]]}, {"name": "add_16", "class_name": "Add", "config": {"name": "add_16", "trainable": true}, "inbound_nodes": [[["conv_15_b", 0, 0, {}], ["cropping1d_16", 0, 0, {}]]]}, {"name": "down_sampling", "class_name": "Conv1D", "config": {"name": "down_sampling", "trainable": true, "filters": 32, "kernel_size": [1], "strides": [1], "padding": "valid", "data_format": "channels_last", "dilation_rate": [1], "activation": "relu", "use_bias": true, "kernel_initializer": {"class_name": "VarianceScaling", "config": {"scale": 1.0, "mode": "fan_avg", "distribution": "uniform", "seed": null}}, "bias_initializer": {"class_name": "Zeros", "config": {}}, "kernel_regularizer": null, "bias_regularizer": null, "activity_regularizer": null, "kernel_constraint": null, "bias_constraint": null}, "inbound_nodes": [[["add_16", 0, 0, {}]]]}, {"name": "dnase", "class_name": "Conv1D", "config": {"name": "dnase", "trainable": true, "filters": 1, "kernel_size": [1], "strides": [1], "padding": "valid", "data_format": "channels_last", "dilation_rate": [1], "activation": "relu", "use_bias": true, "kernel_initializer": {"class_name": "VarianceScaling", "config": {"scale": 1.0, "mode": "fan_avg", "distribution": "uniform", "seed": null}}, "bias_initializer": {"class_name": "Zeros", "config": {}}, "kernel_regularizer": null, "bias_regularizer": null, "activity_regularizer": null, "kernel_constraint": null, "bias_constraint": null}, "inbound_nodes": [[["down_sampling", 0, 0, {}]]]}], "input_layers": [["sequence", 0, 0]], "output_layers": [["dnase", 0, 0]]}, "keras_version": "2.2.4", "backend": "tensorflow"}